2024_07_15_17_06_47_epoch200_0.02.pth (torch, 517879 bytes, 91 tensors)

k_weights f4 [4]
0.5517155 -0.016173944 -0.01598399 -0.061480727
00000000: 3a3d 0d3f 387f 84bc dbf0 82bc 37d3 7bbd

mim_1.T_mamba1.pos_embedding f4 [1, 50, 64]
-1.3523332 -0.4352306 -0.102773 0.91050273 0.18263105 1.0254886 1.6891887 0.7372845
-1.0285535 -0.101678215 0.9915642 0.97839016 -2.1171649 0.7982418 0.52151346 -1.0571436
1.2365658 0.5112783 0.1590158 0.71991515 -1.3802062 0.34307608 1.1648606 1.1459223
-0.36083296 0.15075243 -2.4548566 1.3066057 1.6732033 -1.5572085 0.25047114 -0.07610096
0.2062986 -0.10065586 0.98482877 1.1603371 0.43203434 -0.123156734 -1.494662 -0.24313557
-0.7122786 0.0506384 -0.0334815 0.66265315 0.24939267 -0.9318309 0.8566547 0.09064074
0.5828262 -0.6135502 0.3710525 0.22977985 -0.6291432 -0.7245355 -0.8953311 -0.21423015
-0.6716281 0.75362414 1.9774401 0.054113265 0.59970206 -1.1110198 0.16375254 -0.35622594
1.7776935 1.6130562 -0.5295672 0.109098196 0.44828933 -0.019054243 0.5144084 0.8174682
-0.07229932 0.5049211 1.2786556 -0.9191426 -0.38315907 -0.7148055 -0.19688468 -2.205214
-1.526112 1.1839217 0.9588795 0.72900987 0.65511453 -0.8811488 -0.20703974 -0.36740226
-0.2504443 0.8514073 -0.17885828 -0.9080689 0.26830462 0.7768712 1.1686311 0.59956443
0.500172 0.54955155 -0.63211125 -1.0046883 1.2318082 1.5046339 -0.18143795 0.597184
1.05938 -0.75774807 0.38121426 -0.49934563 -0.6166165 -0.98427635 -1.1153568 -0.11073518
0.18184438 -0.3428081 -0.35215402 -0.81865203 0.7311219 0.14626509 -1.2963552 0.2168892
-0.21652225 0.03407807 -1.401818 0.056877192 -1.4236839 -0.5947308 0.48989934 -0.84538466
-0.47130725 -0.65567887 1.0124645 -0.52966213 -0.039027747 0.9456641 0.84427464 1.2805282
-0.49279737 0.17726776 0.34801722 -0.14265591 -0.78973264 0.27826855 1.5411217 0.23192148
0.39803398 0.46202353 0.7641609 -0.56461847 0.5321831 -1.0355316 0.010576823 0.2621138
0.43271485 0.35570362 1.075982 1.6706439 0.42061865 0.34032223 -0.009284265 0.77319735
0.46999893 -0.31571034 1.1336876 0.71777624 0.44694608 1.0775021 3.4232244 -1.124872
-0.5141526 0.37034965 0.8426034 -0.50426835 -0.5526499 0.34376967 -0.3688432 -0.68929785
0.093814716 -0.08629237 -0.3259366 0.41617352 -0.16417946 -0.07209593 0.79159206 0.2718589
-0.8937939 0.73793346 -0.45942134 -0.96240085 1.024215 -0.8150489 1.2236193 0.57183033
1.4352028 0.93906456 0.31798714 2.2119122 0.50635207 1.0972384 0.42243195 1.1226337
-0.6065965 0.3834767 -0.79098713 0.98272055 0.85056674 0.5827413 -0.2729102 0.13798979
-0.1902924 1.1001716 -0.5706468 2.803467 0.21895808 -0.43778548 -0.5871252 0.4814876
1.4326686 -1.7187285 -0.20856571 -1.2813067 1.1166425 0.025752228 2.2461383 -0.7433023
-0.25625676 -0.98174757 -1.5774815 -0.21891227 -0.35830566 0.05694144 1.2942364 1.076566
-0.41100594 0.281878 -1.2560127 0.15159194 0.017306084 0.12792921 0.6374051 -0.5492932
-0.19944952 -0.33462214 -0.72484344 -0.3103782 -0.8270782 0.054728523 1.3537885 0.06321051
0.58553416 -0.6924316 0.25239927 0.28501913 -0.11101491 -0.8615712 0.9761477 -0.83609486
00000000: 4119 adbf 8cd6 debe a77a d2bd b516 693f
00000010: a203 3b3e 3643 833f 5637 d83f adbe 3c3f
00000020: a4a7 83bf ab3c d0bd 27d7 7d3f c777 7a3f
00000030: a17f 07c0 9359 4c3f e881 053f 7b50 87bf
00000040: ca47 9e3f 22e3 023f 0ad5 223e 5c4c 383f
00000050: 99aa b0bf aba7 af3e 271a 953f 95ad 923f
00000060: 19bf b8be d85e 1a3e 5f1c 1dc0 db3e a73f
00000070: 872b d63f 9c52 c7bf c13d 803e d2da 9bbd
00000080: f13f 533e a924 cebd bd1d 7c3f ed85 943f
00000090: 9b33 dd3e 9939 fcbd 1651 bfbf 88f8 78be
000000a0: e457 36bf 366a 4f3d e623 09bd a3a3 293f
000000b0: cb60 7f3e 788c 6ebf b94d 5b3f daa1 b93d
000000c0: 1934 153f a011 1dbf 98fa bd3e 694b 6b3e
000000d0: 870f 21bf 297b 39bf 6b34 65bf 265f 5bbe
000000e0: d2ef 2bbf 83ed 403f c21c fd3f dfa5 5d3d
000000f0: 1386 193f e635 8ebf bfae 273e 3f63 b6be
00000100: 768b e33f a078 ce3f b791 07bf e06e df3d
00000110: 2e86 e53e a517 9cbc 45b0 033f 9945 513f
00000120: aa11 94bd 8242 013f fdaa a33f ee4c 6bbf
00000130: 6d2d c4be 7efd 36bf 239c 49be 3a22 0dc0
00000140: a357 c3bf bf8a 973f 2079 753f 64a0 3a3f
00000150: 96b5 273f f892 61bf 3a02 54be 261c bcbe
00000160: 3c3a 80be d4f5 593f a026 37be 3477 68bf
00000170: 395f 893e 08e1 463f b495 953f 0e7d 193f
00000180: 460b 003f 69af 0c3f 0bd2 21bf a099 80bf
00000190: e4ab 9d3f d897 c03f dfca 39be 0de1 183f
000001a0: c499 873f c7fb 41bf 842e c33e 3baa ffbe
000001b0: 94da 1dbf 89f9 7bbf 03c4 8ebf 20c9 e2bd
000001c0: 6a35 3a3e 8b84 afbe 884d b4be 2e93 51bf
000001d0: ce2a 3b3f 84c6 153e f8ee a5bf 3418 5e3e
000001e0: 02b8 5dbe 7295 0b3d c66e b3bf 0ff8 683d
000001f0: 463b b6bf 4740 18bf 16d4 fa3e 216b 58bf
00000200: 2f4f f1be 92da 27bf 7098 813f f097 07bf
00000210: 8fdb 1fbd 0b17 723f 6222 583f 59e8 a33f
00000220: f04f fcbe ae85 353e 502f b23e 6414 12be
00000230: eb2b 4abf 3779 8e3e 7a43 c53f d37c 6d3e
00000240: 1ccb cb3e 598e ec3e 0ca0 433f d68a 10bf
00000250: 273d 083f 4d8c 84bf 694a 2d3c c833 863e
00000260: cd8c dd3e c91e b63e c7b9 893f a9d7 d53f
00000270: 545b d73e b73e ae3e 081d 18bc 43f0 453f
00000280: b3a3 f03e c9a4 a1be ad1c 913f 2fc0 373f
00000290: 1ed6 e43e 97eb 893f 1c16 5b40 cefb 8fbf
000002a0: 819f 03bf 789e bd3e dbb4 573f bb17 01bf
000002b0: 777a 0dbf 9402 b03e 04d9 bcbe d375 30bf
000002c0: ee21 c03d 0eba b0bd 29e1 a6be b214 d53e
000002d0: a91e 28be 08a7 93bd c7a5 4a3f 1731 8b3e
000002e0: adcf 64bf 35e9 3c3f 4639 ebbe e75f 76bf
000002f0: 7a19 833f 0ba7 50bf 8f9f 9c3f 7963 123f
00000300: bab4 b73f 8966 703f 36cf a23e f88f 0d40
00000310: 4aa0 013f 4f72 8c3f 0049 d83e 76b2 8f3f
00000320: e949 1bbf 0f57 c43e 227e 4abf 9393 7b3f
00000330: bebe 593f 892e 153f e3ba 8bbe 324d 0d3e
00000340: 03dc 42be 6cd2 8c3f e915 12bf 016c 3340
00000350: 8c36 603e 6b25 e0be d64d 16bf 8b85 f63e
00000360: af61 b73f 4cff dbbf 4092 55be dc01 a4bf
00000370: 24ee 8e3f 56f6 d23c bbc0 0f40 0f49 3ebf
00000380: 1634 83be cf53 7bbf eaea c9bf 8a2a 60be
00000390: d773 b7be 6d3b 693d 8aa9 a53f eacc 893f
000003a0: 5f6f d2be 5052 903e 06c5 a0bf eb3a 1b3e
000003b0: 7dc5 8d3c e0ff 023e fb2c 233f 7b9e 0cbf
000003c0: 7f3c 4cbe 9853 abbe 578f 39bf e4e9 9ebe
000003d0: 66bb 53bf 042b 603d f148 ad3f 8374 813d
000003e0: 91e5 153f 3343 31bf 7a3a 813e 07ee 913e
000003f0: c95b e3bd ee8f 5cbf d1e4 793f 500a 56bf

mim_1.T_mamba1.cls_token f4 [1, 1, 64]
0.0617702 -0.0053002224 0.0016927008 -0.0095154755 0.026611743 -0.03492426 -0.018455751 0.081072584
-0.037126206 -0.005052258 0.028535003 0.0849454 0.044574387 0.032462884 -0.043735214 -0.03370874
-0.033764917 0.008340402 -0.0067919837 -0.01499917 -0.001114968 0.038810737 0.033510286 -0.013366042
-0.008473269 -0.008146254 -0.050151 0.06483533 -0.024150038 0.014552256 0.038031608 -0.031907123
0.011044279 -0.024478924 -0.0025417323 0.021403713 0.0073823007 -0.009580107 -0.027436145 -0.017991388
-0.05997234 -0.027900022 0.0539203 0.007893024 0.012111819 0.00974046 0.05894926 -0.0153139485
-0.0012270176 -0.010134794 -0.037742432 0.002035345 -0.011104788 0.0074307625 -0.02511687 0.016228585
0.01547547 0.021195596 -0.03382424 -0.018814849 -0.0015721592 0.051300474 0.018859882 -0.008410511
00000000: c002 7d3d 7dad adbb 9ddd dd3a cce6 1bbc
00000010: df00 da3c be0c 0fbd 8430 97bc 6209 a63d
00000020: a611 18bd 698d a5bb 3dc2 e93c dbf7 ad3d
00000030: a293 363d cdf7 043d b223 33bd 2d12 0abd
00000040: 154d 0abd 2ea6 083c 4a8f debb 14bf 75bc
00000050: 1e24 92ba 02f8 1e3d 1542 093d 3efd 5abc
00000060: 77d3 0abc de77 05bc 236b 4dbd 63c8 843d
00000070: 4dd6 c5bc 966c 6e3c 08c7 1b3d 0bb1 02bd
00000080: 10f3 343c 0688 c8bc 3193 26bb d756 af3c
00000090: 3ae7 f13b e2f5 1cbc c4c1 e0bc ad62 93bc
000000a0: 8ea5 75bd 968e e4bc 88db 5c3d be51 013c
000000b0: a770 463c 7396 1f3c c774 713d 5be7 7abc
000000c0: e1d3 a0ba 680c 26bc cf97 1abd 6c63 053b
000000d0: dbf0 35bc c17d f33b e5c1 cdbc cff1 843c
000000e0: d38c 7d3c 63a2 ad3c 498b 0abd 9921 9abc
000000f0: e910 ceba 7220 523d 0a80 9a3c 3dcc 09bc

mim_1.T_mamba1.to_patch_embedding.0.weight f4 [100]
1.0 1.0 1.0 1.0 1.0 1.0 1.0 1.0
1.0 1.0 1.0 1.0 1.0 1.0 1.0 1.0
1.0 1.0 1.0 1.0 1.0 1.0 1.0 1.0
1.0 1.0 1.0 1.0 1.0 1.0 1.0 1.0
1.0 1.0 1.0 1.0 1.0 1.0 1.0 1.0
1.0 1.0 1.0 1.0 1.0 1.0 1.0 1.0
1.0 1.0 1.0 1.0 1.0 1.0 1.0 1.0
1.0 1.0 1.0 1.0 1.0 1.0 1.0 1.0
1.0 1.0 1.0 1.0 1.0 1.0 1.0 1.0
1.0 1.0 1.0 1.0 1.0 1.0 1.0 1.0
1.0 1.0 1.0 1.0 1.0 1.0 1.0 1.0
1.0 1.0 1.0 1.0 1.0 1.0 1.0 1.0
1.0 1.0 1.0 1.0
00000000: 0000 803f 0000 803f 0000 803f 0000 803f
00000010: 0000 803f 0000 803f 0000 803f 0000 803f
00000020: 0000 803f 0000 803f 0000 803f 0000 803f
00000030: 0000 803f 0000 803f 0000 803f 0000 803f
00000040: 0000 803f 0000 803f 0000 803f 0000 803f
00000050: 0000 803f 0000 803f 0000 803f 0000 803f
00000060: 0000 803f 0000 803f 0000 803f 0000 803f
00000070: 0000 803f 0000 803f 0000 803f 0000 803f
00000080: 0000 803f 0000 803f 0000 803f 0000 803f
00000090: 0000 803f 0000 803f 0000 803f 0000 803f
000000a0: 0000 803f 0000 803f 0000 803f 0000 803f
000000b0: 0000 803f 0000 803f 0000 803f 0000 803f
000000c0: 0000 803f 0000 803f 0000 803f 0000 803f
000000d0: 0000 803f 0000 803f 0000 803f 0000 803f
000000e0: 0000 803f 0000 803f 0000 803f 0000 803f
000000f0: 0000 803f 0000 803f 0000 803f 0000 803f
00000100: 0000 803f 0000 803f 0000 803f 0000 803f
00000110: 0000 803f 0000 803f 0000 803f 0000 803f
00000120: 0000 803f 0000 803f 0000 803f 0000 803f
00000130: 0000 803f 0000 803f 0000 803f 0000 803f
00000140: 0000 803f 0000 803f 0000 803f 0000 803f
00000150: 0000 803f 0000 803f 0000 803f 0000 803f
00000160: 0000 803f 0000 803f 0000 803f 0000 803f
00000170: 0000 803f 0000 803f 0000 803f 0000 803f
00000180: 0000 803f 0000 803f 0000 803f 0000 803f

mim_1.T_mamba1.to_patch_embedding.0.bias f4 [100]
0.0 0.0 0.0 0.0 0.0 0.0 0.0 0.0
0.0 0.0 0.0 0.0 0.0 0.0 0.0 0.0
0.0 0.0 0.0 0.0 0.0 0.0 0.0 0.0
0.0 0.0 0.0 0.0 0.0 0.0 0.0 0.0
0.0 0.0 0.0 0.0 0.0 0.0 0.0 0.0
0.0 0.0 0.0 0.0 0.0 0.0 0.0 0.0
0.0 0.0 0.0 0.0 0.0 0.0 0.0 0.0
0.0 0.0 0.0 0.0 0.0 0.0 0.0 0.0
0.0 0.0 0.0 0.0 0.0 0.0 0.0 0.0
0.0 0.0 0.0 0.0 0.0 0.0 0.0 0.0
0.0 0.0 0.0 0.0 0.0 0.0 0.0 0.0
0.0 0.0 0.0 0.0 0.0 0.0 0.0 0.0
0.0 0.0 0.0 0.0
00000000: 0000 0000 0000 0000 0000 0000 0000 0000
00000010: 0000 0000 0000 0000 0000 0000 0000 0000
00000020: 0000 0000 0000 0000 0000 0000 0000 0000
00000030: 0000 0000 0000 0000 0000 0000 0000 0000
00000040: 0000 0000 0000 0000 0000 0000 0000 0000
00000050: 0000 0000 0000 0000 0000 0000 0000 0000
00000060: 0000 0000 0000 0000 0000 0000 0000 0000
00000070: 0000 0000 0000 0000 0000 0000 0000 0000
00000080: 0000 0000 0000 0000 0000 0000 0000 0000
00000090: 0000 0000 0000 0000 0000 0000 0000 0000
000000a0: 0000 0000 0000 0000 0000 0000 0000 0000
000000b0: 0000 0000 0000 0000 0000 0000 0000 0000
000000c0: 0000 0000 0000 0000 0000 0000 0000 0000
000000d0: 0000 0000 0000 0000 0000 0000 0000 0000
000000e0: 0000 0000 0000 0000 0000 0000 0000 0000
000000f0: 0000 0000 0000 0000 0000 0000 0000 0000
00000100: 0000 0000 0000 0000 0000 0000 0000 0000
00000110: 0000 0000 0000 0000 0000 0000 0000 0000
00000120: 0000 0000 0000 0000 0000 0000 0000 0000
00000130: 0000 0000 0000 0000 0000 0000 0000 0000
00000140: 0000 0000 0000 0000 0000 0000 0000 0000
00000150: 0000 0000 0000 0000 0000 0000 0000 0000
00000160: 0000 0000 0000 0000 0000 0000 0000 0000
00000170: 0000 0000 0000 0000 0000 0000 0000 0000
00000180: 0000 0000 0000 0000 0000 0000 0000 0000

mim_1.T_mamba1.to_patch_embedding.1.weight f4 [64, 100]
0.07505312 0.03335872 0.05794991 -0.09564169 -0.0850262 -0.07005691 0.076151066 -0.032709826
0.018577147 0.033910263 -0.067706786 0.018985486 -0.0237239 -0.008092749 0.010604346 0.0151963355
0.089876175 -0.016589535 0.09837659 -0.015416766 -0.098200396 0.0017801404 0.07761637 -0.022161175
0.06253395 0.011420763 0.06296738 -0.018224848 0.066431575 0.043028355 0.05802988 -0.03607242
-0.021399617 -0.006496048 0.02212875 0.023421371 -0.058910202 0.009325445 0.017586006 0.032697987
0.005462146 -0.05330987 0.052799284 -0.03831592 -0.0050214888 0.004924691 0.059637953 0.031381834
-0.03527168 -0.03707992 -0.025419747 0.072743155 -0.059047963 -0.00054540636 0.097266376 0.08708713
-0.070484675 -0.02005384 -0.036213588 -0.08497453 0.018396068 0.09344472 -0.010231281 -0.01256975
-0.004361093 0.014137245 -0.07915957 0.07781251 -0.08974985 0.0836698 -0.016701305 -0.0045507313
-0.026213408 0.07309462 0.010284054 -0.05946392 0.07853689 0.08921992 -0.029557109 0.00075129274
-0.054265082 0.068059005 -0.071762346 -0.019779598 -0.007716918 -0.05878947 -0.04888724 0.07339647
0.057784487 0.09073978 -0.025707114 0.05881208 0.0155688645 0.07422588 0.06472937 -0.045618083
0.06637287 0.06308644 0.07314866 -0.08653337 -0.098152 0.06702643 0.06513064 0.09372751
-0.08002239 -0.027644742 -0.08369664 0.0626721 0.013763035 -0.073817864 -0.052230846 -0.045329858
-0.01095686 0.023273611 -0.0786564 0.05029893 0.093203805 -0.06595528 -0.06656785 0.05186143
-0.018111397 -0.00028002262 -0.039943542 -0.016156876 0.07934133 -0.07886992 0.0836061 0.064749956
-0.015421164 -0.076476514 0.0675437 -0.049543586 -0.03701643 -0.090722434 -0.06787397 0.068864584
0.03819963 0.04593116 0.07595916 -0.02180779 0.043263864 0.005683124 0.08757323 0.028695716
0.03733995 -0.08477899 0.03709481 0.0482728 -0.023954082 -0.029578412 0.015830457 0.08790197
0.060868885 -0.028226806 -0.0012360096 -0.057449725 -0.046044648 0.059810974 0.0988552 0.07156678
0.06259656 -0.038175177 0.015479887 -0.09788054 0.026501417 -0.089139 -0.042968582 -0.031827427
0.089938365 0.022382712 0.08452337 -0.013831163 0.040071856 -0.042129375 0.012461937 0.058643807
0.035784163 0.061816324 0.08668933 0.061718848 0.002958274 -0.09659342 0.013070571 0.016242493
-0.08558955 -0.009746707 0.039695393 -0.06576701 0.011350298 -0.0063395738 0.06369229 -0.019615209
-0.07246721 -0.061514832 0.00867362 -0.062101018 -0.07021308 0.023693109 0.008830058 0.051505245
-0.016598536 0.026452685 -0.06445652 0.090137124 -0.09658028 -0.0073349713 0.03612858 -0.025659228
0.035311937 0.035378277 -0.031732466 -0.07977577 -0.041592695 -0.059371818 -0.09656762 0.04508716
0.018672919 0.08002261 -0.082662396 0.076496914 0.0023825287 0.07386835 -0.021210063 0.020247841
-0.0070228814 -0.047553647 0.017976666 -0.050442886 -0.023168087 0.06038629 -0.09554442 0.043729603
-0.06448515 -0.06448629 -0.07860183 -0.08999669 0.013407111 0.015538729 -0.05146421 0.027345885
-0.08562755 0.042548288 -0.049559306 0.08528771 -0.06497555 0.032750774 -0.08527104 0.0677617
-0.029902184 -0.02858355 0.008112061 -0.09018785 -0.0025924563 -0.09109815 0.07109467 -0.053618457
00000000: 73b5 993d 27a3 083d e35c 6d3d cadf c3bd
00000010: 3722 aebd ff79 8fbd 17f5 9b3d bdfa 05bd
00000020: 1a2f 983c 7de5 0a3d dba9 8abd 7387 9b3c
00000030: a058 c2bc 7397 04bc dabd 2d3c 0dfa 783c
00000040: 0011 b83d c7e6 87bc aa79 c93d 9a96 7cbc
00000050: 4a1d c9bd 9a53 e93a 55f5 9e3d 5a8b b5bc
00000060: cd11 803d 271e 3b3c 0bf5 803d 474c 95bc
00000070: 470d 883d 803e 303d bdb0 6d3d adc0 13bd
00000080: 404e afbc cddc d4bb 5a47 b53c 2dde bf3c
00000090: d34b 71bd c0c9 183c 8710 903c 53ee 053d
000000a0: cdfb b23b 735b 5abd 1044 583d 27f1 1cbd
000000b0: 4d8b a4bb 4d5f a13b ed46 743d 3d8a 003d
000000c0: 0a79 10bd 1de1 17bd 133d d0bc 5dfa 943d
000000d0: 47dc 71bd 9af9 0eba 9833 c73d bd5a b23d
000000e0: 455a 90bd f347 a4bc b354 14bd 2007 aebd
000000f0: 5ab3 963c f25f bf3d 1aa1 27bc 5af1 4dbc
00000100: 80e7 8ebb e79f 673c 6a1e a2bd 2a5c 9f3d
00000110: c5ce b7bd 125b ab3d 2dd1 88bc 4d1e 95bb
00000120: 80bd d6bc a2b2 953d 737e 283c 7090 73bd
00000130: f3d7 a03d efb8 b63d c021 f2bc 67f2 443a
00000140: 1045 5ebd 8562 8b3d 23f8 92bd d308 a2bc
00000150: 33de fcbb 3acd 70bd fd3d 48bd e350 963d
00000160: 6daf 6c3d c7d5 b93d ba97 d2bc f0e4 703d
00000170: 8d14 7f3c bd03 983d d590 843d 07da 3abd
00000180: 80ee 873d 7733 813d f7ce 953d 6838 b1bd
00000190: ea03 c9bd 2745 893d 3763 853d 35f4 bf3d
000001a0: c7e2 a3bd 3a77 e2bc 2569 abbd 3b5a 803d
000001b0: 5a7e 613c d22d 97bd 03f0 55bd cdab 39bd
000001c0: 6784 33bc 4da8 be3c 9b16 a1bd 4006 4e3d
000001d0: a3e1 be3d 9013 87bd ba54 88bd a76c 543d
000001e0: 5a5e 94bc 00d0 92b9 d79b 23bd 6d5b 84bc
000001f0: b57d a23d 8d86 a1bd ad39 ab3d a09b 843d
00000200: 0da9 7cbc b89f 9cbd 5a54 8a3d 37ee 4abd
00000210: 8a9e 17bd afcc b9bd 8201 8bbd e008 8d3d
00000220: 3777 1c3d 5022 3c3d 7a90 9b3d 40a6 b2bc
00000230: 7335 313d 8039 ba3b 9859 b33d 4713 eb3c
00000240: c7f1 183d 9ba0 adbd baf0 173d b3b9 453d
00000250: 5a3b c4bc 6d4e f2bc e0ae 813c f305 b43d
00000260: a751 793d e73b e7bc 9a01 a2ba 6750 6bbd
00000270: 5099 3cbd 5afc 743d 9874 ca3d 9b91 923d
00000280: a032 803d 935d 1cbd 5a9f 7d3c 9875 c8bd
00000290: 8019 d93c 828e b6bd d3ff 2fbd 7a5d 02bd
000002a0: 9b31 b83d f35b b73c 971a ad3d 1a9c 62bc
000002b0: 6322 243d da8f 2cbd 272d 4c3c 7d34 703d
000002c0: 6a92 123d 1d33 7d3d 2d8a b13d e7cc 7c3d
000002d0: 9adf 413b c5d2 c5bd f325 563c fa0e 853c
000002e0: 9349 afbd a7b0 1fbc a397 223d dbb0 86bd
000002f0: 9af6 393c 33bc cfbb 1a71 823d 13b0 a0bc
00000300: b069 94bd faf6 7bbd cd1b 0e3c a35d 7ebd
00000310: e0cb 8fbd 0d18 c23c f3ab 103c 2af7 523d
00000320: a7f9 87bc 4db3 d83c c801 84bd d099 b83d
00000330: e2cb c5bd 335a f0bb 90fb 133d 4d33 d2bc
00000340: 40a3 103d d0e8 103d e7f9 01bd 7b61 a3bd
00000350: 1a5d 2abd dd2f 73bd 3fc5 c5bd 50ad 383d
00000360: f3f7 983c e5e2 a33d e74a a9bd 6aaa 9c3d
00000370: 3324 1c3b 4a48 973d bac0 adbc cdde a53c
00000380: 3320 e6bb 9dc7 42bd cd43 933c 339d 4ebd
00000390: 00cb bdbc 9d57 773d cbac c3bd d01d 333d
000003a0: ca10 84bd 6311 84bd fff9 a0bd 2f50 b8bd
000003b0: 80a9 5b3c 2796 7e3c 23cc 52bd 7a04 e03c
000003c0: 7f5d afbd 1d47 2e3d b3fe 4abd 53ab ae3d
000003d0: e711 85bd ad25 063d 95a2 aebd a5c6 8a3d
000003e0: 6df5 f4bc 0d28 eabc 73e8 043c 68b4 b8bd
000003f0: 33e6 29bb ab91 babd 159a 913d 079f 5bbd

mim_1.T_mamba1.to_patch_embedding.1.bias f4 [64]
-0.046851803 0.0805511 0.015779484 -0.05265838 -0.0010451436 -0.075735904 -0.016023828 0.081828974
-0.07412707 -0.055776205 -0.0021517992 -0.09209249 0.05975845 -0.031997275 -0.0635296 0.029903496
0.010128892 0.060275268 0.0051898 0.09489345 0.06458179 0.07037204 -0.093081035 -0.014507127
-0.025313854 0.00065796374 0.011969185 0.011005307 -0.086837254 -0.07124925 0.09527091 0.0019470215
-0.0008727074 -0.06515109 0.076039374 0.0794748 -0.09213996 0.08541482 -0.04212922 0.07474772
-0.070519984 -0.060403585 -0.060608473 -0.08057586 0.01351999 -0.03340398 -0.049273707 -0.018396152
-0.022439731 -0.061345506 0.03535639 -0.031326342 0.0026166558 -0.06070124 -0.031859886 0.010734416
0.012303377 0.0018906593 0.07457723 0.033791807 -0.048596647 -0.03329867 0.010895384 -0.005004931
00000000: ade7 3fbd faf7 a43d fa43 813c 50b0 57bd
00000010: 33fd 88ba 6d1b 9bbd 6744 83bc f395 a73d
00000020: efcf 97bd 9775 64bd 3305 0dbb fd9a bcbd
00000030: 47c5 743d 930f 03bd cf1b 82bd 2df8 f43c
00000040: a7f3 253c 33e3 763d 330f aa3b 7f57 c23d
00000050: 7543 843d 371f 903d 45a1 bebd 4daf 6dbc
00000060: 005f cfbc 337b 2c3a 671a 443c 9a4f 343c
00000070: bbd7 b1bd 20eb 91bd 651d c33d 3333 ff3a
00000080: 67c6 64ba ef6d 85bd 88ba 9b3d afc3 a23d
00000090: e0b3 bcbd f7ed ae3d b08f 2cbd 5515 993d
000000a0: c86c 90bd c069 77bd 9740 78bd f504 a5bd
000000b0: f382 5d3c 9dd2 08bd 3ad3 49bd 87b3 96bc
000000c0: 87d3 b7bc 6d45 7bbd ddd1 103d 0d50 00bd
000000d0: 337c 2b3b dda1 78bd 837f 02bd 67df 2f3c
000000e0: 1a94 493c 00d0 f73a f2bb 983d 4769 0a3d
000000f0: 470d 47bd 3064 08bd 8d82 323c 6700 a4bb

mim_1.T_mamba1.to_patch_embedding.2.weight f4 [64]
1.0 1.0 1.0 1.0 1.0 1.0 1.0 1.0
1.0 1.0 1.0 1.0 1.0 1.0 1.0 1.0
1.0 1.0 1.0 1.0 1.0 1.0 1.0 1.0
1.0 1.0 1.0 1.0 1.0 1.0 1.0 1.0
1.0 1.0 1.0 1.0 1.0 1.0 1.0 1.0
1.0 1.0 1.0 1.0 1.0 1.0 1.0 1.0
1.0 1.0 1.0 1.0 1.0 1.0 1.0 1.0
1.0 1.0 1.0 1.0 1.0 1.0 1.0 1.0
00000000: 0000 803f 0000 803f 0000 803f 0000 803f
00000010: 0000 803f 0000 803f 0000 803f 0000 803f
00000020: 0000 803f 0000 803f 0000 803f 0000 803f
00000030: 0000 803f 0000 803f 0000 803f 0000 803f
00000040: 0000 803f 0000 803f 0000 803f 0000 803f
00000050: 0000 803f 0000 803f 0000 803f 0000 803f
00000060: 0000 803f 0000 803f 0000 803f 0000 803f
00000070: 0000 803f 0000 803f 0000 803f 0000 803f
00000080: 0000 803f 0000 803f 0000 803f 0000 803f
00000090: 0000 803f 0000 803f 0000 803f 0000 803f
000000a0: 0000 803f 0000 803f 0000 803f 0000 803f
000000b0: 0000 803f 0000 803f 0000 803f 0000 803f
000000c0: 0000 803f 0000 803f 0000 803f 0000 803f
000000d0: 0000 803f 0000 803f 0000 803f 0000 803f
000000e0: 0000 803f 0000 803f 0000 803f 0000 803f
000000f0: 0000 803f 0000 803f 0000 803f 0000 803f

mim_1.T_mamba1.to_patch_embedding.2.bias f4 [64]
0.0 0.0 0.0 0.0 0.0 0.0 0.0 0.0
0.0 0.0 0.0 0.0 0.0 0.0 0.0 0.0
0.0 0.0 0.0 0.0 0.0 0.0 0.0 0.0
0.0 0.0 0.0 0.0 0.0 0.0 0.0 0.0
0.0 0.0 0.0 0.0 0.0 0.0 0.0 0.0
0.0 0.0 0.0 0.0 0.0 0.0 0.0 0.0
0.0 0.0 0.0 0.0 0.0 0.0 0.0 0.0
0.0 0.0 0.0 0.0 0.0 0.0 0.0 0.0
00000000: 0000 0000 0000 0000 0000 0000 0000 0000
00000010: 0000 0000 0000 0000 0000 0000 0000 0000
00000020: 0000 0000 0000 0000 0000 0000 0000 0000
00000030: 0000 0000 0000 0000 0000 0000 0000 0000
00000040: 0000 0000 0000 0000 0000 0000 0000 0000
00000050: 0000 0000 0000 0000 0000 0000 0000 0000
00000060: 0000 0000 0000 0000 0000 0000 0000 0000
00000070: 0000 0000 0000 0000 0000 0000 0000 0000
00000080: 0000 0000 0000 0000 0000 0000 0000 0000
00000090: 0000 0000 0000 0000 0000 0000 0000 0000
000000a0: 0000 0000 0000 0000 0000 0000 0000 0000
000000b0: 0000 0000 0000 0000 0000 0000 0000 0000
000000c0: 0000 0000 0000 0000 0000 0000 0000 0000
000000d0: 0000 0000 0000 0000 0000 0000 0000 0000
000000e0: 0000 0000 0000 0000 0000 0000 0000 0000
000000f0: 0000 0000 0000 0000 0000 0000 0000 0000

mim_1.T_mamba1.vim.forward_conv1d.weight f4 [64, 64, 1]
-0.067298084 0.0017631181 0.061281566 0.12900832 0.052041836 -0.18222487 -0.041605327 -0.042775422
0.038527474 0.010560014 -0.088192105 0.0596336 0.053957988 -0.1817361 -0.051718697 0.049862046
0.12820576 0.0071428604 0.0228772 0.079411365 -0.13000144 0.14862807 0.034812 -0.19034277
0.005657871 0.15247203 0.046869356 0.19242159 0.0050779185 0.014655163 -0.0023837038 -0.16524681
-0.17119947 0.08472696 0.04300342 0.15525876 -0.11310524 -0.09242464 0.06527329 -0.063121684
-0.055622846 -0.08361238 -0.11589009 0.10673146 0.022814717 0.112814955 0.05874697 -0.011392385
0.023621436 0.05500123 -0.008519275 -0.12712574 0.062160946 -0.017493406 -0.031043928 -0.09998343
0.0004063119 -0.13079552 -0.069113165 0.12716544 -0.045390695 0.016878877 0.04663261 0.025205579
-0.044447526 0.15688123 0.14430928 -0.03701245 -0.14765735 0.09918745 0.1450061 -0.12046392
0.18308316 0.01749386 0.04468845 -0.03297759 -0.08217425 0.15773872 -0.08345797 0.014375754
0.08698031 -0.058423407 0.068257235 -0.13321197 -0.13622166 0.06517354 0.0673429 -0.09690757
0.053776655 0.12985553 0.13781689 0.15615779 -0.13053215 0.03915035 -0.117927395 -0.105196774
-0.04881257 0.022689736 -0.032203563 -0.056853 0.024512593 -0.099918045 0.020496273 -0.030175628
-0.043126572 -0.05644654 0.039296675 0.061335452 -0.016683426 -0.11611766 -0.038354173 0.069568545
-0.114952534 -0.13595083 -0.018961474 -0.03071376 -0.13542444 0.04360042 -0.021928057 -0.0779334
-0.069701456 0.1019696 0.0640295 -0.14920382 -0.090535484 0.19534062 -0.08926704 0.03166509
0.049983904 0.10621906 -0.0042251158 0.05521767 -0.012435125 -0.036433633 -0.096029595 -0.0700821
0.037015267 0.020322546 -0.06683523 -0.11674243 -0.022469088 0.043994445 -0.09137096 -0.09617531
-0.13287124 -0.0850143 0.092303544 -0.1524878 -0.089524165 0.07430874 -0.078121305 0.017597292
0.23244518 0.021408627 0.06418422 -0.034724403 -0.01750812 -0.14603831 0.13877149 -0.054732714
0.03587498 0.10867264 -0.002274663 0.0035712877 -0.026387522 -0.030590603 0.040701814 0.039894138
-0.012267482 0.1982731 0.061094962 0.062687494 -0.028650938 -0.14722367 0.0008817338 0.0787211
-0.1539502 -0.03517107 0.037457544 0.01910169 0.054421596 0.16696261 -0.017314225 -0.03557733
-0.12823652 -0.08329851 0.06420683 0.11337449 0.16170973 0.067700684 0.09776642 -0.12090963
-0.0046553174 0.030902633 -0.01830536 0.018321892 0.21350512 0.110898435 -0.06305078 -0.048784863
-0.04430106 -0.06565726 -0.010991949 -0.03263227 0.0619926 0.10413076 -0.039394137 0.00434902
0.07343918 0.001798107 -0.06910318 0.020352146 -0.14732094 0.17008291 -0.078992575 -0.1634986
-0.011391356 -0.053269226 -0.106905304 0.061525844 -0.028654378 -0.026592836 -0.10471906 0.054452006
0.11668663 0.091110304 0.05231797 0.02013066 -0.01404322 0.00840913 0.09492206 -0.035458803
-0.008237333 0.06726548 0.05460014 -0.06615082 -0.09218265 -0.06167338 0.08652641 0.028310664
-0.03742772 -0.13181114 0.018057385 0.023622625 0.088154145 0.036615174 0.1540277 0.07529252
-0.13090304 0.015351614 -0.092947 0.008158023 0.09384914 -0.025247237 0.06771663 0.11746706
00000000: 94d3 89bd 6d18 e73a 6102 7b3d c21a 043e
00000010: d229 553d 2899 3abe 596a 2abd 4835 2fbd
00000020: fcce 1d3d e903 2d3c 109e b4bd 5d42 743d
00000030: 0d03 5d3d 0719 3abe fcd6 53bd 253c 4c3d
00000040: 5f48 033e a80e ea3b f768 bb3c 6da2 a23d
00000050: 191f 05be f531 183e 0797 0e3d 37e9 42be
00000060: a965 b93b a121 1c3e 15fa 3f3d 2a0a 453e
00000070: ab64 a63b 351c 703c ea37 1cbb 7636 29be
00000080: ea4e 2fbe 5485 ad3d 5b24 303d 27fc 1e3e
00000090: b8a3 e7bd 2149 bdbd 01ae 853d f145 81bd
000000a0: c8d4 63bd f83c abbd c957 edbd 0696 da3d
000000b0: eee5 ba3c 870b e73d aaa0 703d 20a7 3abc
000000c0: be81 c13c f848 613d 6e94 0bbc 402d 02be
000000d0: 7a9c 7e3d 554e 8fbc d64f febc 1dc4 ccbd
000000e0: 4306 d539 43ef 05be 348b 8dbd a837 023e
000000f0: 98eb 39bd 9245 8a3c d601 3f3d ee7b ce3c
00000100: 9c0e 36bd 79a5 203e d0c5 133e 5e9a 17bd
00000110: 7d33 17be ca22 cb3d 7b7c 143e cab5 f6bd
00000120: 277a 3b3e 494f 8f3c 3c0b 373d 8213 07bd
00000130: f94a a8bd 4286 213e 03ec aabd 4888 6b3c
00000140: bc22 b23d 624d 6fbd 73ca 8b3d b868 08be
00000150: b17d 0bbe b479 853d 13eb 893d 7a77 c6bd
00000160: e944 5c3d d9f8 043e df1f 0d3e d4e7 1f3e
00000170: 38aa 05be 1e5c 203d eb83 f1bd 6871 d7bd
00000180: b0ef 47bd d3df b93c e2e7 03bd b1de 68bd
00000190: a2ce c83c d5a1 ccbd cde7 a73c e132 f7bc
000001a0: 7da5 30bd 7d34 67bd 8df5 203d e23a 7b3d
000001b0: aeab 88bc 19cf edbd 4419 1dbd f479 8e3d
000001c0: 3c6c ebbd b236 0bbe 1855 9bbc 6c9b fbbc
000001d0: b4ac 0abe 5b96 323d 78a2 b3bc 8c9b 9fbd
000001e0: a3bf 8ebd 70d5 d03d e621 833d e3c8 18be
000001f0: ab6a b9bd 5f07 483e a3d1 b6bd 41b3 013d
00000200: ecbb 4c3d 6189 d93d d772 8abb ec2b 623d
00000210: b2bc 4bbc 6f3b 15bd 2aab c4bd 3487 8fbd
00000220: 529d 173d 787b a63c e9e0 88bd a816 efbd
00000230: 1811 b8bc 8533 343d b320 bbbd 90f7 c4bd
00000240: 660f 08be fa1b aebd a409 bd3d c325 1cbe
00000250: 7258 b7bd 2e2f 983d 10fe 9fbd 3228 903c
00000260: 1c06 6e3e 2561 af3c 0473 833d 2d3b 0ebd
00000270: 306d 8fbc 118b 15be 1d1a 0e3e 692f 60bd
00000280: a5f1 123d c38f de3d 8312 15bb 440c 6a3b
00000290: a52a d8bc 2599 fabc f2b6 263d 0968 233d
000002a0: 8cfd 48bc 1b08 4b3e b63e 7a3d 4d62 803d
000002b0: 5fb5 eabc cdc1 16be 2724 673a 8738 a13d
000002c0: 1fa5 1dbe 8a0f 10bd 156d 193d 267b 9c3c
000002d0: 2ee9 5e3d 3ff8 2a3e 90d6 8dbc 89b9 11bd
000002e0: 6f50 03be 6998 aabd df7e 833d e230 e83d
000002f0: 3c97 253e a8a6 8a3d c339 c83d 789f f7bd
00000300: a28b 98bb 8527 fd3c 1ff5 95bc cb17 963c
00000310: 16a1 5a3e b81e e33d c420 81bd a3d2 47bd
00000320: 0775 35bd 5077 86bd 9317 34bc 6aa9 05bd
00000330: f4eb 7d3d 8242 d53d bf5b 21bd 3982 8e3b
00000340: 4867 963d 76ae eb3a f885 8dbd 8bb9 a63c
00000350: 4ddb 16be 372a 2e3e dcc6 a1bd 2d6c 27be
00000360: cfa2 3abc d530 5abd 2bf1 dabd 8602 7c3d
00000370: 96bc eabc 38d9 d9bc f276 d6bd 1109 5f3d
00000380: 66f9 ee3d 0a98 ba3d 5e4b 563d 0ee9 a43c
00000390: 8915 66bc 73c6 093c 7f66 c23d 403d 11bd
000003a0: e1f5 06bc 7cc2 893d 65a4 5f3d 157a 87bd
000003b0: 42ca bcbd 3a9d 7cbd c234 b13d c4eb e73c
000003c0: cf4d 19bd 80f9 06be 15ed 933c 3c84 c13c
000003d0: 298a b43d cbf9 153d 70b9 1d3e f732 9a3d
000003e0: 720b 06be 5685 7b3c ff5a bebd 3aa9 053c
000003f0: fa33 c03d 4bd3 cebc 04af 8a3d 9292 f03d

mim_1.T_mamba1.vim.forward_conv1d.bias f4 [64]
0.12206291 -0.05596683 -0.060097925 0.16378006 0.11875451 -0.045020457 -0.062478587 0.049051475
-0.07060297 -0.10283063 0.0076418826 -0.0732442 0.119627245 0.11786717 0.143779 0.15176493
-0.026322197 -0.042786147 0.0766851 0.020771233 0.14180045 0.124149345 0.0740308 -0.04471535
0.022445343 -0.060822118 0.07322998 -0.06178542 0.0075157955 -0.09206855 0.13302763 -0.05355463
-0.08397025 0.070776306 0.04636475 0.04136379 -0.10568792 0.023295209 0.082237825 -0.039812554
0.10913201 0.022334175 -0.08408916 -0.029384734 0.08777485 -0.09437004 -0.08125873 0.037806213
0.065706156 0.08920189 -0.099178866 -0.052592326 -0.09407861 0.09591067 0.034064118 0.086232424
0.10387033 -0.069326505 -0.01588591 0.053150237 -0.07874168 -0.059449278 0.07110545 -0.048280697
00000000: 1efc f93d 7a3d 65bd 3e29 76bd f6b5 273e
00000010: 9135 f33d 5f67 38bd 8ce9 7fbd 33ea 483d
00000020: 4a98 90bd de98 d2bd c268 fa3b 0e01 96bd
00000030: 21ff f43d 5864 f13d cd3a 133e 4468 1b3e
00000040: a6a1 d7bc 8740 2fbd 140d 9d3d 6f28 aa3c
00000050: 2334 113e 0342 fe3d 769d 973d 7127 37bd
00000060: 4cdf b73c 9d20 79bd 9af9 953d b512 7dbd
00000070: 1047 f63b 708e bcbd 6538 083e 1a5c 5bbd
00000080: 98f8 abbd 2bf3 903d f7e8 3d3d 146d 293d
00000090: e872 d8bd 98d5 be3c 4e6c a83d 7d12 23bd
000000a0: 9a80 df3d 29f6 b63c f036 acbd 41b8 f0bc
000000b0: 4dc3 b33d 1445 c1bd fa6a a6bd b0da 1a3d
000000c0: f390 863d 7baf b63d 4a1e cbbd 0d6b 57bd
000000d0: 49ac c0bd d06c c43d d186 0b3d a09a b03d
000000e0: f8b9 d43d 0efb 8dbd 2b23 82bc 10b4 593d
000000f0: 5143 a1bd 1681 73bd bc9f 913d fbc1 45bd

mim_1.T_mamba1.vim.backward_conv1d.weight f4 [64, 64, 1]
-0.028633565 0.007474628 -0.04208203 0.13338953 0.09034085 -0.12718974 0.03651313 -0.07415998
0.030260101 -0.10899197 -0.041450582 -0.07491102 0.0580759 -0.14732935 0.047364466 -0.07508804
0.014205709 0.07723816 0.033410255 0.04608889 -0.13222606 0.18457963 -0.09640972 0.020173108
0.10331519 -0.041680366 -0.034782805 0.16354743 -0.020576501 0.20001549 -0.05454338 -0.004166246
-0.12804063 -0.043312427 0.01582162 0.15555163 0.04967545 -0.03196236 0.15039794 -0.063547775
0.010483449 0.025025154 0.07647532 0.0027153823 0.03019261 -0.0806676 0.025051435 0.07927675
0.18426579 0.02889288 -0.054258943 0.0755068 -0.07548285 -0.054194264 0.041005414 0.036001135
-0.134934 -0.08704416 -0.09088001 0.091319114 0.12208856 0.07399268 0.0033477864 -0.107903495
-0.14688729 -0.09103849 0.11276182 -0.05009464 -0.14728223 -0.013907817 -0.045275826 -0.03724383
0.12110697 -0.088223696 0.08079513 -0.16765974 0.15043408 0.08283059 0.0018885363 -0.11893673
0.04625949 0.08666788 -0.12799105 -0.039043434 -0.122319706 -0.03983093 -0.073619954 -0.10042655
-0.10166553 0.16156708 0.1695712 0.109189995 0.02809731 0.054285433 0.087159 -0.06002049
-0.06092957 -0.021668574 -0.17554301 -0.13424997 -0.016164841 -0.020056283 0.08320596 0.14556535
-0.15680915 0.010899065 0.17321819 -0.12853885 0.13368529 0.04955949 -0.13028964 0.09083439
-0.09615391 -0.10210116 0.109461285 0.053438842 -0.09674162 0.14165607 0.021917686 -0.17344944
-0.09790036 -0.015549189 0.10809278 -0.10497684 -0.101170436 -0.034979206 0.009641311 -0.056359164
0.09737206 0.04282589 0.038764607 0.02060792 -0.08491258 0.029128188 0.16114335 -0.0927389
0.075015694 0.07406693 0.096586324 -0.13165443 0.08843653 -0.0751247 -0.051453922 -0.14400633
-0.18445387 -0.03457529 0.016174722 -0.082106784 0.09174119 0.118210115 -0.08189919 0.067076035
0.024185104 -0.108997904 0.02212011 0.10743116 -0.06073056 -0.10829179 0.12357182 -0.05855467
-0.00068194984 0.008917201 -0.16685502 0.056004874 -0.11293731 0.12269389 0.12268875 0.11691609
-0.11308348 0.051376034 0.03151034 -0.120381966 -0.17447558 0.077608794 -0.06053427 -0.038267422
0.08936328 -0.111094646 0.13194484 -0.14796907 0.020368723 -0.08993887 0.029834962 0.09782197
-0.06331377 0.13266413 0.05673863 0.1669474 -0.040754385 0.0559319 -0.016888613 -0.15434869
0.04349677 -0.035950314 -0.07153941 0.13583261 0.06600457 -0.043927304 0.06893358 -0.05944665
0.080586664 -0.18202327 0.021270705 -0.16626915 0.053376887 -0.077609025 0.03756926 0.15068042
0.008756528 -0.07509553 -0.06097239 0.07961954 0.06261932 0.063576594 0.12967414 0.17000909
-0.06658139 -0.017926406 -0.07575631 0.134324 -0.014738683 0.071240745 -0.062175144 -0.1138469
0.1075503 -0.20922992 0.025368446 -0.11670591 -0.054178223 0.1353396 -0.07409061 0.056584824
-0.009913113 -0.06253907 0.011033984 -0.08388202 -0.12535855 0.09383183 -0.055214345 0.061504174
-0.018474245 0.002009918 0.060737796 -0.067756556 0.08209393 -0.17603931 0.08749108 -0.049905352
-0.077842705 -0.00898033 -0.024179175 0.10261671 -0.08312577 0.03473436 -0.0768024 -0.11030531
00000000: f090 eabc b9ed f43b 355e 2cbd 4497 083e
00000010: a004 b93d 073e 02be cb8e 153d 30e1 97bd
00000020: 08e4 f73c 2f37 dfbd 16c8 29bd f36a 99bd
00000030: ffe0 6d3d 81dd 16be 3e01 423d c2c7 99bd
00000040: 10bf 683c 0a2f 9e3d 31d9 083d b4c7 3c3d
00000050: 4566 07be 7102 3d3e 7672 c5bd 1342 a53c
00000060: ea96 d33d 08b9 2abd 6a78 0ebd fa78 273e
00000070: 0d90 a8bc dcd0 4c3e e168 5fbd 0185 88bb
00000080: 151d 03be 5f68 31bd 589c 813c ed48 1f3e
00000090: 7c78 4b3d f7ea 02bd eb01 1a3e 5625 82bd
000000a0: c6c2 2b3c 8d01 cd3c 189f 9c3d 8ef4 313b
000000b0: 7e56 f73c 0e35 a5bd ab38 cd3c d95b a23d
000000c0: 2cb0 3c3e c3b0 ec3c a03e 5ebd 4fa3 9a3d
000000d0: c196 9abd cefa 5dbd 4bf5 273d ed75 133d
000000e0: 232c 0abe 3544 b2bd 4c1f babd 8405 bb3d
000000f0: 9109 fa3d 7989 973d 8966 5b3b 82fc dcbd
00000100: 9f69 16be 6372 babd abef e63d 0a30 4dbd
00000110: 27d1 16be 9ddd 63bc 2573 39bd fc8c 18bd
00000120: ee06 f83d a0ae b4bd eb77 a53d ffae 2bbe
00000130: 640b 1a3e 16a3 a93d c388 f73a 1a95 f3bd
00000140: 977a 3d3d ee7e b13d 1610 03be 02ec 1fbd
00000150: c182 fabd c225 23bd 0fc6 96bd 6fac cdbd
00000160: 0436 d0bd d771 253e 13a4 2d3e 019f df3d
00000170: 542c e63c 675a 5e3d 6b80 b23d 0cd8 75bd
00000180: 4991 79bd 4b82 b1bc 8cc1 33be d378 09be
00000190: 216c 84bc 134d a4bc e367 aa3d 150f 153e
000001a0: 9492 20be fe91 323c 1c60 313e b09f 03be
000001b0: cce4 083e e4fe 4a3d a66a 05be 6107 ba3d
000001c0: 57ec c4bd 6a1a d1bd 3d2d e03d b0e2 5a3d
000001d0: 7820 c6bd 4a0e 113e b88c b33c bb9c 31be
000001e0: fc7f c8bd 07c2 7ebc bf5f dd3d 19fe d6bd
000001f0: 7232 cfbd 5b46 0fbd 97f6 1d3c ded8 66bd
00000200: 016b c73d 336a 2f3d a3c7 1e3d f1d1 a83c
00000210: a6e6 adbd 3d9e ee3c c302 253e e4ed bdbd
00000220: d4a1 993d 67b0 973d 0dcf c53d 6bd0 06be
00000230: 361e b53d fbda 99bd 59c1 52bd 6576 13be
00000240: 7ae1 3cbe d29e 0dbd da80 843c 9a27 a8bd
00000250: cee2 bb3d 2518 f23d c3ba a7bd 295f 893d
00000260: d71f c63c 4b3a dfbd 3c35 b53c de04 dc3d
00000270: 9cc0 78bd 16c8 ddbd 3913 fd3d 06d7 6fbd
00000280: e1c4 32ba 7419 123c 0bdc 2abe 5e65 653d
00000290: ad4b e7bd ef46 fb3d 3d44 fb3d b471 ef3d
000002a0: 5098 e7bd ad6f 523d fc10 013d d28a f6bd
000002b0: baa9 32be 5cf1 9e3d c8f2 77bd 4dbe 1cbd
000002c0: 1804 b73d 9785 e3bd 8c1c 073e 3485 17be
000002d0: 4fdc a63c df31 b8bd 7368 f43c e356 c83d
000002e0: a6aa 81bd 1bd9 073e c466 683d 42f4 2a3e
000002f0: 12ee 26bd d918 653d fd59 8abc 950d 1ebe
00000300: ab29 323d a340 13bd 4183 92bd b417 0b3e
00000310: 672d 873d 1eed 33bd 0c2d 8d3d 557e 73bd
00000320: 9f0a a53d 4f64 3abe e73f ae3c 7642 2abe
00000330: b9a1 5a3d 7bf1 9ebd 39e2 193d f84b 1a3e
00000340: 8a77 0f3c afcb 99bd 2fbe 79bd 920f a33d
00000350: 8f3e 803d 7234 823d 4cc9 043e dd16 2e3e
00000360: d35b 88bd 66da 92bc 2026 9bbd 3b8c 093e
00000370: 847a 71bc abe6 913d 5dab 7ebd 9028 e9bd
00000380: 5543 dc3d 5e40 56be 7dd1 cf3c 8203 efbd
00000390: fce9 5dbd 7796 0a3e d1bc 97bd 7dc5 673d
000003a0: 9c6a 22bc 7c14 80bd e2c7 343c 56ca abbd
000003b0: fe5d 00be e72a c03d 7028 62bd cdeb 7b3d
000003c0: 4d57 97bc d4b8 033b 32c8 783d f3c3 8abd
000003d0: dd20 a83d a643 34be 862e b33d 8e69 4cbd
000003e0: ff6b 9fbd 3c22 13bc 6813 c6bc b628 d23d
000003f0: d83d aabd 9e45 0e3d 944a 9dbd c0e7 e1bd

mim_1.T_mamba1.vim.backward_conv1d.bias f4 [64]
0.034501832 0.09617662 -0.064815864 -0.0100685395 0.038072802 0.10407478 0.019479077 0.104655765
0.10622519 0.025197828 0.056491673 -0.012653115 0.06376531 0.06518643 0.007852098 -0.043767378
0.13225642 0.032192443 -0.06917406 -0.06680035 0.09020571 0.045008697 -0.089068614 0.09076891
0.038278718 -0.041827418 -0.06978481 0.09716103 0.10568745 -0.07254974 -0.08396425 -0.010355066
0.1068141 0.023864286 0.10491912 -0.038507786 -0.024104752 0.09680404 0.07560988 -0.050048288
0.061551627 0.054997355 0.05581618 -0.08540033 0.028387776 -0.046451263 0.11793318 -0.024804115
0.09701179 0.11097485 0.04057192 0.008318977 0.07222668 -0.07552132 0.1165322 0.030651813
-0.02969628 0.037678342 -0.0036179207 0.11739574 0.093695134 0.108687446 -0.01968356 0.13539158
00000000: cb51 0d3d 3ff8 c43d 2ebe 84bd 84f6 24bc
00000010: 3af2 1b3d 2925 d53d 9692 9f3c c355 d63d
00000020: 988c d93d ad6b ce3c d063 673d 034f 4fbc
00000030: 6397 823d 7780 853d 16a6 003c 6c45 33bd
00000040: 3a6e 073e 39dc 033d 21ab 8dbd 9fce 88bd
00000050: c5bd b83d 0a5b 383d 9b69 b6bd 0de5 b93d
00000060: 25ca 1c3d 3a53 2bbd 57eb 8ebd 5dfc c63d
00000070: a972 d83d f594 94bd 73f5 abbd 4ba8 29bc
00000080: 5ac1 da3d 097f c33c d6df d63d 57ba 1dbd
00000090: 5477 c5bc 3241 c63d 5ad9 9a3d 6fff 4cbd
000000a0: 8f1d 7c3d e844 613d 829f 643d 5ee6 aebd
000000b0: 7b8d e83c ae43 3ebd f386 f13d 0032 cbbc
000000c0: 1eae c63d c846 e33d be2e 263d 524c 083c
000000d0: 95eb 933d ecaa 9abd 6fa8 ee3d 8319 fb3c
000000e0: 9d45 f3bc 9b54 1a3d a31a 6dbb 2d6d f03d
000000f0: 3ce3 bf3d 8697 de3d 6b3f a1bc 17a4 0a3e

mim_1.T_mamba1.vim.norm.weight f4 [64]
1.0675743 1.002852 1.0859153 0.9471705 1.0988965 1.0301036 1.0184336 1.0439713
1.0452086 0.9920135 1.0218747 1.0545328 1.0140027 1.1120306 1.0012156 1.0266886
1.055972 0.9804883 1.0157735 1.0640234 1.012532 1.030926 1.059396 1.070138
1.0057514 1.0378419 1.0944586 1.0564873 0.9624852 1.0129011 1.0222739 1.089126
0.96861535 1.0439868 1.0532542 0.9906838 1.0604296 1.0537956 1.0109426 1.0595897
0.9854278 1.0026456 1.0932453 0.98015594 1.0634063 1.0585866 1.0684896 1.016677
1.005767 1.0325874 1.0293231 1.0233725 1.0784146 1.0815984 1.0154904 1.0783775
1.0692339 1.0201428 1.0788865 1.0668646 1.0289576 1.058335 1.0630138 1.0689944
00000000: 46a6 883f 745d 803f 46ff 8a3f c479 723f
00000010: a4a8 8c3f 6fda 833f 085c 823f daa0 853f
00000020: 65c9 853f 99f4 7d3f cacc 823f eefa 863f
00000030: d7ca 813f 0557 8e3f d527 803f 886a 833f
00000040: 172a 873f 4801 7b3f de04 823f eb31 883f
00000050: a69a 813f 62f5 833f 4a9a 873f 48fa 883f
00000060: 76bc 803f 01d8 843f 3817 8c3f fa3a 873f
00000070: 6e65 763f bea6 813f dfd9 823f 7b68 8b3f
00000080: 2df7 773f 5ca1 853f 09d1 863f 749d 7d3f
00000090: 28bc 873f c6e2 863f 9166 813f a3a0 873f
000000a0: ff44 7c3f b156 803f 76ef 8b3f 80eb 7a3f
000000b0: b31d 883f c47f 873f 44c4 883f 7922 823f
000000c0: f9bc 803f d32b 843f dcc0 833f dffd 823f
000000d0: 7d09 8a3f d171 8a3f 97fb 813f 4608 8a3f
000000e0: a8dc 883f 0a94 823f f418 8a3f 058f 883f
000000f0: e2b4 833f 8577 873f d610 883f cfd4 883f

mim_1.T_mamba1.vim.norm.bias f4 [64]
0.0070194085 -0.0006443784 -0.003647469 -0.014788757 -0.008591932 -0.012758724 0.031571694 0.020204514
0.0048842095 -0.0033319034 -0.0119488705 -0.012721676 -0.014906741 0.024131943 0.0069790864 0.0025713695
-0.005575097 0.013165817 0.006924017 0.01290587 0.02280808 0.014843643 -0.0062263794 0.01662347
0.0042704036 -0.056975596 -0.017174222 -0.034930415 -0.0023813818 -0.0023776556 -0.020601137 -0.017802956
0.023009725 -0.019723883 0.0032733262 -0.0094698435 -0.0056829257 -0.000771665 -0.0017249524 0.018558709
-0.018307503 0.006907866 0.020931765 -0.017191108 0.008351609 -0.0048700776 0.004843572 0.01757235
0.017833812 0.004457767 -0.0076029385 -0.0041765445 0.0015848142 -0.008362527 -0.008504337 -0.015084422
-0.046320647 0.016088087 0.017108243 0.000940359 -0.007164512 0.020748971 -0.026763322 0.0066939276
00000000: 1103 e63b 81eb 28ba 600a 6fbb 8b4c 72bc
00000010: 2dc5 0cbc f809 51bc 5251 013d f083 a53c
00000020: b80b a03b 105c 5abb 32c5 43bc 946e 50bc
00000030: 673b 74bc 5ab0 c53c d2b0 e43b 6c84 283b
00000040: 4eaf b6bb 70b5 573c dde2 e23b 2473 533c
00000050: 03d8 ba3c c032 733c a806 ccbb f12d 883c
00000060: beee 8b3b 3e5f 69bd f4b0 8cbc 3213 0fbd
00000070: f510 1cbb 71d2 1bbb b7c3 a8bc 81d7 91bc
00000080: e47e bc3c fb93 a1bc 4d85 563b 6727 1bbc
00000090: d637 babb 9049 4aba cc17 e2ba 6f08 983c
000000a0: 9ef9 95bc 615b e23b 1879 ab3c 5ed4 8cbc
000000b0: 30d5 083c 2c95 9fbb d4b6 9e3b e4f3 8f3c
000000c0: 3718 923c 7612 923b 1222 f9bb 65db 88bb
000000d0: 8ab9 cf3a fb02 09bc c655 0bbc a724 77bc
000000e0: b8ba 3dbd 2acb 833c 9626 8c3c 6d82 763a
000000f0: 48c4 eabb bff9 a93c c13e dbbc bc58 db3b

mim_1.T_mamba1.vim.forward_ssm.A_log f4 [64, 32]
-0.06368218 0.6286745 1.0438145 1.3274124 1.5491718 1.728904 1.8834085 2.0251758
2.1440392 2.2538078 2.3506088 2.4376283 2.5224283 2.6006615 2.6691678 2.7322276
2.793198 2.8500257 2.9034262 2.953914 3.00211 3.0479996 3.0918436 3.1338174
3.1740572 3.2127416 3.2499485 3.2858167 3.3204162 3.3538492 3.3861823 3.4174864
-0.013759249 0.69909614 1.097259 1.3771484 1.614112 1.8002511 1.9561361 2.0571554
2.183264 2.2929914 2.3823302 2.471634 2.5407667 2.6328804 2.6844018 2.7371984
2.8023632 2.8491015 2.9041154 2.9532473 3.002456 3.0461295 3.0902123 3.13168
3.172597 3.2109497 3.248388 3.2851884 3.3198075 3.3531058 3.386064 3.4171827
-0.013541704 0.7053887 1.1028209 1.3742179 1.6149517 1.7959172 1.9085602 2.0427506
2.1549995 2.2902932 2.3525174 2.4335005 2.5238569 2.6065414 2.668261 2.7284064
2.7907803 2.8503215 2.90499 2.9525428 3.001778 3.0480108 3.091794 3.1339476
3.1739316 3.2127964 3.2499707 3.2858167 3.320391 3.3538167 3.386199 3.4174814
-0.02517407 0.66328794 1.056751 1.3596216 1.6202338 1.7968278 1.9482559 2.1078207
2.2257109 2.335793 2.4066133 2.4776657 2.548224 2.6170475 2.6786366 2.7394693
2.7978606 2.8527179 2.9053752 2.9552298 3.0029137 3.048625 3.0922751 3.134013
3.174198 3.2128208 3.249987 3.2858226 3.320418 3.3538506 3.3861823 3.4174864
-0.05156855 0.6550803 1.0541424 1.336755 1.5640655 1.7494211 1.885793 2.0198112
2.138973 2.2457347 2.339368 2.4273822 2.514245 2.5976212 2.6670082 2.7305877
2.792447 2.8497233 2.9033737 2.9537666 3.0020602 3.0479724 3.0918372 3.1338162
3.1740522 3.2127419 3.2499487 3.2858167 3.3204162 3.3538492 3.3861823 3.4174864
0.005194524 0.68260944 1.0745984 1.362468 1.5871143 1.7566267 1.9348638 2.0550377
2.1807525 2.2756455 2.3746612 2.4571207 2.5321631 2.6064796 2.672596 2.7351224
2.79432 2.8503957 2.903448 2.9540765 3.0021427 3.0480287 3.091854 3.1338158
3.17406 3.2127419 3.2499487 3.2858167 3.3204162 3.3538492 3.3861823 3.4174864
-0.037567083 0.68387824 1.0794052 1.3680305 1.5918167 1.7580855 1.898017 2.0382078
2.1546645 2.2766926 2.3493824 2.4368048 2.5207617 2.6059637 2.666518 2.7294219
2.7931683 2.8478072 2.9005444 2.9530683 3.0001345 3.0479677 3.0931435 3.1324158
3.1725073 3.2114253 3.2492323 3.2853286 3.3198273 3.353677 3.3862062 3.4172654
-0.038846314 0.6500279 1.082258 1.3596117 1.5592667 1.7574686 1.9017068 2.047623
2.159212 2.2607577 2.3522878 2.4427145 2.523389 2.5929751 2.661073 2.7294073
2.7899382 2.8481975 2.902956 2.9534454 3.0018868 3.0475423 3.0915053 3.133751
3.1740527 3.2127342 3.249938 3.2858171 3.3204138 3.3538477 3.3861823 3.4174864
00000000: ce6b 82bd d0f0 203f b79b 853f a6e8 a93f
00000010: 434b c63f ba4c dd3f 8813 f13f 7b9c 0140
00000020: f037 0940 633e 1040 6070 1640 1a02 1c40
00000030: 776f 2140 3d71 2640 a5d3 2a40 d1dc 2e40
00000040: c2c3 3240 d266 3640 bcd1 3940 ed0c 3d40
00000050: 9222 4040 6d12 4340 c4e0 4540 7790 4840
00000060: c123 4b40 8f9d 4d40 28ff 4f40 d24a 5240
00000070: b381 5440 77a5 5640 36b7 5840 19b8 5a40
00000080: 796e 61bc f7f7 323f fc72 8c3f 6646 b03f
00000090: 399b ce3f a16e e63f ab62 fa3f 6fa8 0340
000000a0: 99ba 0b40 5fc0 1240 1978 1840 402f 1e40
000000b0: ec9b 2240 1d81 2840 3dcd 2b40 422e 2f40
000000c0: eb59 3340 ae57 3640 07dd 3940 0102 3d40
000000d0: 3d28 4040 c9f3 4240 0ac6 4540 726d 4840
000000e0: d40b 4b40 3380 4d40 97e5 4f40 8740 5240
000000f0: ba77 5440 4999 5640 46b5 5840 1fb3 5a40
00000100: 06de 5dbc 5b94 343f 3c29 8d3f 5fe6 af3f
00000110: bdb6 ce3f 9de0 e53f b34b f43f 6dbc 0240
00000120: 83eb 0940 2a94 1240 a58f 1640 79be 1b40
00000130: df86 2140 93d1 2640 cac4 2a40 369e 2e40
00000140: 259c 3240 ab6b 3640 5beb 3940 76f6 3c40
00000150: 211d 4040 9c12 4340 f4df 4540 9992 4840
00000160: b221 4b40 759e 4d40 85ff 4f40 d24a 5240
00000170: 4981 5440 efa4 5640 7cb7 5840 04b8 5a40
00000180: da39 cebc 3dcd 293f 9e43 873f 1508 ae3f
00000190: d263 cf3f 74fe e53f 7360 f93f 89e6 0640
000001a0: 0c72 0e40 a27d 1540 f405 1a40 1392 1e40
000001b0: 1a16 2340 b57d 2740 c86e 2b40 7753 2f40
000001c0: 2610 3340 ee92 3640 abf1 3940 7c22 3d40
000001d0: bd2f 4040 ac1c 4340 d6e7 4540 ab93 4840
000001e0: 0f26 4b40 db9e 4d40 c9ff 4f40 eb4a 5240
000001f0: ba81 5440 7da5 5640 36b7 5840 19b8 5a40
00000200: 8b39 53bd 58b3 273f 23ee 863f ca1a ab3f
00000210: 4c33 c83f 08ed df3f aa61 f13f 9644 0140
00000220: efe4 0840 1eba 0f40 35b8 1540 3b5a 1b40
00000230: 64e9 2040 6d3f 2640 43b0 2a40 f3c1 2e40
00000240: 74b7 3240 de61 3640 e0d0 3940 830a 3d40
00000250: c121 4040 fb11 4340 a9e0 4540 7290 4840
00000260: ac23 4b40 909d 4d40 29ff 4f40 d24a 5240
00000270: b381 5440 77a5 5640 36b7 5840 19b8 5a40
00000280: d336 aa3b 7ebf 2e3f 718c 893f 5a65 ae3f
00000290: 9026 cb3f 25d9 e03f 9ea9 f73f bd85 0340
000002a0: 7391 0b40 2da4 1140 73fa 1740 7741 1d40
000002b0: f60e 2240 90d0 2640 d00b 2b40 3f0c 2f40
000002c0: 24d6 3240 e26c 3640 18d2 3940 970f 3d40
000002d0: 1b23 4040 e712 4340 f0e0 4540 7090 4840
000002e0: cd23 4b40 909d 4d40 29ff 4f40 d24a 5240
000002f0: b381 5440 77a5 5640 36b7 5840 19b8 5a40
00000300: f1df 19bd a512 2f3f f329 8a3f a01b af3f
00000310: a6c0 cb3f f208 e13f 39f2 f23f ff71 0240
00000320: 06e6 0940 55b5 1140 485c 1640 9cf4 1b40
00000330: 2954 2140 1cc8 2640 3ba8 2a40 d9ae 2e40
00000340: 45c3 3240 7942 3640 85a2 3940 12ff 3c40
00000350: 3402 4040 e711 4340 10f6 4540 8079 4840
00000360: 5c0a 4b40 fe87 4d40 6cf3 4f40 d342 5240
00000370: 0d78 5440 a5a2 5640 9ab7 5840 7ab4 5a40
00000380: 501d 1fbd 3a68 263f 6e87 8a3f c207 ae3f
00000390: 0d96 c73f bbf4 e03f 216b f33f 410c 0340
000003a0: 8830 0a40 41b0 1040 e28b 1640 6f55 1c40
000003b0: 357f 2140 4ef3 2540 054f 2a40 9cae 2e40
000003c0: 598e 3240 de48 3640 08ca 3940 4005 3d40
000003d0: ea1e 4040 ef0a 4340 39db 4540 608f 4840
000003e0: ae23 4b40 709d 4d40 fcfe 4f40 d44a 5240
000003f0: a981 5440 71a5 5640 36b7 5840 19b8 5a40

mim_1.T_mamba1.vim.forward_ssm.D f4 [64]
1.0009528 0.99603593 1.0096891 1.0119582 1.0218167 0.97543645 1.0120261 0.9899232
0.9674715 0.9768798 0.99930567 1.0026546 0.97457665 1.0097944 1.005873 0.9904357
1.008689 1.0151421 0.9900741 1.0239787 1.0021589 1.0142624 0.9895691 1.0094447
0.97670007 0.9602303 1.0098461 1.0051893 0.98532504 1.0076796 0.9650738 0.9710886
0.9778753 1.018633 1.0041546 0.9844641 0.98828435 0.9763348 0.9852928 0.9817233
0.9568779 1.0043452 0.9571842 0.9953661 0.9991283 0.98099196 1.0054387 1.0072296
1.0114299 0.9853706 1.0031488 1.009131 0.97974235 0.97235584 0.9912769 1.0101187
0.9929561 0.9783762 1.0081872 1.0089604 1.0053447 1.0045062 1.0077094 0.99551684
00000000: 391f 803f 36fc 7e3f 7e3d 813f d987 813f
00000010: e4ca 823f 34b6 793f 128a 813f 9b6b 7d3f
00000020: 36ac 773f cb14 7a3f 7fd2 7f3f fc56 803f
00000030: db7d 793f f140 813f 72c0 803f 328d 7d3f
00000040: b91c 813f 2df0 813f 7f75 7d3f bc11 833f
00000050: be46 803f 5ad3 813f 6754 7d3f 7c35 813f
00000060: 0409 7a3f a7d1 753f a342 813f 0baa 803f
00000070: 433e 7c3f a5fb 803f 140f 773f 4399 783f
00000080: 0956 7a3f 9162 823f 2388 803f d705 7c3f
00000090: 3400 7d3f 14f1 793f 263c 7c3f 3852 7b3f
000000a0: f3f5 743f 628e 803f 060a 753f 50d0 7e3f
000000b0: dfc6 7f3f 4a22 7b3f 37b2 803f e6ec 803f
000000c0: 8976 813f 3f41 7c3f 2e67 803f 342b 813f
000000d0: 65d0 7a3f 50ec 783f 53c4 7d3f 924b 813f
000000e0: 5f32 7e3f dd76 7a3f 470c 813f 9d25 813f
000000f0: 23af 803f a993 803f 9ffc 803f 31da 7e3f
